data.pth (torch, 5418 bytes, 6 tensors)

l1.weight f4 [8, 54]
000000 a6 ad bd bd eb 01 f3 3e 39 1b 2e 3e e6 30 85 bd
       -0.092616364 0.474624 0.17002572 -0.06503467
000010 f5 8a 92 be 4d 9b 98 3f a1 08 bb bd 51 6b 50 be
       -0.2862164 1.1922394 -0.09132505 -0.20353438
000020 fd 34 ae 3e 1d 74 4a be dd c8 a3 bd f5 90 18 3f
       0.34024802 -0.19770856 -0.07997296 0.59596187
000030 39 1c 9a 3e 41 be 18 3f df 33 05 3f 91 e5 68 3e
       0.30099657 0.59665304 0.52032274 0.22743823
000040 a4 32 5c be c0 a9 89 3f 25 0a 8a be 14 37 b4 be
       -0.21503693 1.0754929 -0.26960865 -0.3519827
000050 d7 1f b1 be 9a 4f e0 be 57 c2 66 be 2e 93 d9 3d
       -0.34594604 -0.4381073 -0.22535072 0.106237754
000060 6a 4f a2 3e 58 99 08 be e0 1a e3 be 07 ce 57 3f
       0.31701213 -0.13339746 -0.44356441 0.8429875
000070 5a 14 6a 3d d0 f8 27 3f 02 95 3e 3f 0b 31 fd 3e
       0.057148315 0.6561403 0.7444612 0.4945148
000080 be 88 58 be 65 a2 da 3d 1e ff 42 3f b8 95 65 3e
       -0.21145913 0.106755055 0.7617053 0.22420394
000090 dc 83 be bc 70 30 ab 3e 94 30 01 be 59 83 f4 bd
       -0.023256235 0.33435392 -0.12616187 -0.11939115
0000a0 1d ba 2f 3f ae 94 15 bf 0c 89 0b 3f 9d 0b 07 3f
       0.6864336 -0.5842999 0.5450599 0.52752095
0000b0 02 d2 c3 3e 26 05 44 3f 50 c3 29 bf 0c c7 65 be
       0.3824616 0.76570356 -0.6631365 -0.22439212
0000c0 93 5c 54 3d e2 92 0a bf 4f 2e 6d 3e 2d b9 c8 be
       0.0518461 -0.54130375 0.23162197 -0.39203778
0000d0 f6 2e 7c be 45 25 3b 3e 2e 90 16 3e a7 73 d9 be
       -0.24627289 0.18275936 0.14703438 -0.42471048
0000e0 f5 6b a1 3e 52 84 9e be b6 7f d5 bd 6f 0e 78 3f
       0.31527677 -0.30960327 -0.104247496 0.96897024
0000f0 54 3b ac 3e d9 8c dc 3e a3 cc d0 3e 46 66 ce 3e
       0.33639014 0.43076208 0.40781125 0.40312403
000100 79 60 40 be 09 69 82 3e 56 1c 22 3f ea 7a b9 3e
       -0.18786801 0.2547076 0.6332449 0.36226588
000110 21 d2 ec bd 9f e8 b2 3d 72 49 bd be 3e a6 8c 3f
       -0.115635164 0.08735775 -0.36970097 1.0988233
000120 43 f0 1c 3f 83 70 ec be a3 76 b0 3e 89 bd 0e bf
       0.6130411 -0.4617959 0.34465513 -0.5575796
000130 53 b8 0e bf df f7 51 be b5 7d 6d 3e 88 ba 33 be
       -0.55750006 -0.20504712 0.23192485 -0.17551625
000140 29 cf 21 3f 0f dc 8f be a8 2b e2 3e 6a 8e ef be
       0.63206726 -0.2809758 0.44173932 -0.4678834
000150 0b e2 04 3f f8 4b ff 3e 87 7c 98 3c 64 11 49 3e
       0.51907414 0.49862647 0.018614067 0.1963554
000160 50 5c 20 be 11 a1 5c 3e 88 ca 16 3f 39 a7 0d 3f
       -0.15660214 0.21545817 0.5890279 0.55333287
000170 e7 6d 83 3e a4 09 81 3e e3 68 d1 3e 2e d2 62 3f
       0.25669786 0.25202668 0.40900335 0.8860196
000180 f0 9e ad 3e 03 3d 20 bd 56 ee 0b 3f 78 06 00 be
       0.33910322 -0.039120685 0.54660547 -0.12502468
000190 a8 e0 d3 3e de 50 3e 3e 9b e8 8f 3e d2 85 6b 3f
       0.41382337 0.18585536 0.2810715 0.9200107
0001a0 37 37 5b 3e 35 e1 19 3f ef e8 ad 3d 60 b0 68 3e
       0.21407782 0.60109264 0.08491694 0.22723532
0001b0 2e 53 62 3e 90 ad db be 40 92 54 3f bd 95 e5 3e
       0.22102043 -0.42905855 0.8303566 0.44840804
0001c0 b5 3b 4a 3f 33 b5 15 bf d2 65 c7 3e 71 bf 0c 3f
       0.78997356 -0.58479613 0.3894487 0.54979616
0001d0 23 c2 44 3f fa 0a 11 3f 4c 18 e5 3e d6 7b b6 be
       0.7685873 0.56657374 0.447451 -0.35641354
0001e0 0f 80 52 3f 87 4d a4 be 1a c5 42 be 86 6b b2 be
       0.8222665 -0.320904 -0.19020501 -0.3484766
0001f0 a2 41 cd 3e b6 b1 20 bf b7 7e 50 3f f7 0c 20 3f
       0.40089136 -0.62771165 0.8144335 0.6251978
000200 b7 c6 a7 3d 51 43 08 3f 0a d2 45 3f ef 36 c2 3d
       0.08192199 0.53227717 0.7727362 0.09483134
000210 67 28 b8 3d 5b bf bc 3e ef 2b 2a 3f 98 40 23 bf
       0.08992081 0.36864743 0.6647329 -0.6377044
000220 84 d0 c8 3e 42 7b 1d bf 3c 14 b7 be 5f d9 81 be
       0.39221585 -0.615162 -0.35757625 -0.25361153
000230 6a c9 b5 3e 65 6f 35 3f 24 df 44 be 43 46 d0 be
       0.3550523 0.708731 -0.19225746 -0.40678605
000240 c0 77 ed 3e 8d 24 2d 3f cf 48 c6 3e 0e dc e0 3e
       0.46380424 0.676339 0.38727424 0.43917888
000250 61 71 0a bf 57 24 67 3f f3 e2 99 be 00 9b 70 be
       -0.5407925 0.90289825 -0.3005596 -0.23496628
000260 6d 7d 1c 3e fc a9 3b bc fe 8c 25 3d 9b 66 98 bd
       0.15282221 -0.011454102 0.040417664 -0.074414454
000270 58 83 cd 3e 5c 01 2c 3f 27 54 db be cf 43 3f 3f
       0.4013927 0.67189574 -0.4283764 0.7471284
000280 aa cb bc 3e 3b 9e 1f 3f bb c9 9c be 64 88 11 3f
       0.36874133 0.62350816 -0.30622658 0.5684874
000290 a6 45 71 3e b6 c3 c8 3e a4 ed e8 3e a6 1a cb be
       0.23561725 0.39211816 0.45493805 -0.3966877
0002a0 b6 f1 ab 3e 73 e4 86 3e e6 82 f7 bd f1 b3 b0 3e
       0.33582848 0.26346168 -0.12085514 0.34512284
0002b0 a1 c3 cd 3e ef 16 95 be a1 14 96 bd e5 ca fe be
       0.40188316 -0.2911906 -0.073281534 -0.4976417
0002c0 84 9d ee 3e af de 84 be 66 6c 16 3f 5b 73 8e be
       0.4660455 -0.25951144 0.5875915 -0.27822384
0002d0 05 57 93 be 7d 86 2c 3f 3c 24 8a be e0 c5 36 3f
       -0.28777328 0.6739271 -0.2698077 0.71395683
0002e0 f4 43 1a 3f 26 5f 06 3f 8d f1 39 3d 7e 6d f2 3e
       0.6025994 0.52488935 0.045396376 0.4734916
0002f0 52 4c 48 be 1c 55 1d 3f 5d 71 9f be f1 1e b4 3e
       -0.19560364 0.6145799 -0.31141177 0.35179856
000300 71 5a 6d be 31 7a fb be 6d ab 13 be 24 4d 6e 3e
       -0.23179032 -0.49116662 -0.14420862 0.23271614
000310 51 c4 1b 3f 46 14 00 be db 2b 93 be 5b 82 21 be
       0.6084643 -0.12507734 -0.28744397 -0.15772383
000320 ba b3 c5 3e 45 61 6a 3e e5 24 ec be 52 ed 8e be
       0.38613683 0.22888668 -0.46121898 -0.27915436
000330 9a 17 95 be 30 6b f5 3e 63 9d b0 bd 89 1a 3c 3f
       -0.2911957 0.4793334 -0.08623769 0.7347799
000340 84 3f 5d bf fb e1 87 be 6e 1a 82 3e 9c 37 c6 be
       -0.8642504 -0.26539597 0.2541079 -0.38714302
000350 9c e5 08 be 68 54 6f be 4b 74 a4 3e 2b e4 3c 3e
       -0.13368839 -0.23372042 0.32119974 0.18446414
000360 be bf 62 be 99 5a eb 3e 0a a6 c6 3e 16 3d bf 3e
       -0.22143456 0.45967558 0.38798553 0.37351292
000370 dd 51 89 3e 59 9c b9 be 80 f3 20 3f 2f 19 07 3f
       0.2682027 -0.36252096 0.6287155 0.527728
000380 76 5b b5 3e 10 a1 fd 3e 9b c8 72 3e 93 b9 37 be
       0.35421342 0.49536943 0.23709337 -0.17941885
000390 5b 7f f2 3e de d8 95 be 65 6a 82 3e 3e 43 4d be
       0.4736279 -0.2926702 0.25471798 -0.20045182
0003a0 da 22 4d 3e d3 9d b9 be 13 87 98 be f4 b2 0e 3f
       0.20032826 -0.36253223 -0.29790553 0.5574181
0003b0 7d 12 c7 bc 3a 4c c9 3e cf c3 0b 3f 49 45 f3 3c
       -0.024300808 0.3931597 0.54595655 0.029696124
0003c0 96 da d4 3e a9 0f 90 3e 9c d5 96 be 0c b2 03 3f
       0.41573018 0.28136948 -0.29459846 0.5144355
0003d0 d3 a9 03 3d 1d 04 a2 3e 28 18 91 be a9 f1 3a be
       0.03214438 0.31643763 -0.28338742 -0.18256249
0003e0 24 a5 9c bd 51 f0 ad 3e 94 87 f8 3e 54 12 53 bd
       -0.076486856 0.3397241 0.48540938 -0.05153115
0003f0 cd 38 80 3d dc f2 e6 3e e3 2a 13 3f 31 93 06 3f
       0.06260834 0.45107162 0.57487315 0.52568346

l1.bias f4 [8]
000000 ff b6 29 3f e4 bb 0e 3f db b9 20 3f 9e 62 57 3f
       0.66294855 0.5575545 0.6278359 0.8413485
000010 61 9d b9 3e 0a 17 5b 3f b0 68 72 3f 39 2f 07 3f
       0.36252883 0.8558203 0.9469099 0.5280643

l2.weight f4 [8, 8]
000000 a1 21 96 3e e2 d0 bc 3e ad 8f 03 bf da ed 2b bf
       0.29322532 0.36878115 -0.51391107 -0.6715981
000010 77 1c 32 be c0 24 07 3e 17 35 e1 3e c6 6b 9c 3f
       -0.17393671 0.13197613 0.43985817 1.222039
000020 01 99 bf 3f a9 94 6e 3f 57 f4 8c bf 01 fe 87 bd
       1.4968568 0.9319559 -1.1012067 -0.06640244
000030 f5 5c 12 bf 9d a0 74 3e 2a 82 ba 3e 06 4d f4 3e
       -0.5717309 0.23889394 0.36427432 0.47715014
000040 7c 69 97 bf 91 05 3e bf 87 65 27 3f d7 20 25 3f
       -1.1829066 -0.74227244 0.65389293 0.64503235
000050 f5 8f 55 be 86 33 9d 3f 48 76 8b 3f 79 1c ee 3e
       -0.20855696 1.2281349 1.0895472 0.46506098
000060 dd cb 75 be 0a 4e ae 3f 83 e3 5b 3f 9c 22 84 3e
       -0.24003549 1.3617566 0.8589403 0.25807655
000070 a6 50 e9 be 26 95 a2 3f e1 61 e6 3d 71 52 66 bf
       -0.45569342 1.2701766 0.11249138 -0.89969546
000080 d4 06 3c bf a8 9f 52 3f 2a 4c ca 3e c3 c5 87 bf
       -0.7344792 0.82274866 0.39511234 -1.0607227
000090 83 7e 93 be 92 90 c6 3d 3a 4a 40 3f 98 0d af 3f
       -0.28807458 0.09695543 0.7511326 1.3676023
0000a0 d7 ad af 3e d0 65 33 3f de f6 29 3f 23 c3 e7 3e
       0.34312317 0.7007723 0.66392314 0.45266065
0000b0 0b 88 94 3f 0d 0c 5b bf fc 2b 94 bf 31 f8 84 3f
       1.1604017 -0.85565263 -1.1575923 1.0388242
0000c0 3c c1 4d 3f db b5 1a bf 36 25 42 3e 44 f8 bb 3f
       0.8037298 -0.6043374 0.18959507 1.468514
0000d0 2e a1 8b 3f 10 c0 58 bd 5f fd 84 3f 4c 1e ab be
       1.0908563 -0.05291754 1.0389823 -0.33421552
0000e0 10 6e 01 bf 21 53 6d be 7d 0a 0a 3c 4c 74 88 be
       -0.5055857 -0.23176242 0.008425352 -0.26651227
0000f0 c7 14 62 3d 25 a4 00 3e 02 f7 20 3e 3f 0b fc bc
       0.055195596 0.12562616 0.15719226 -0.030767081

l2.bias f4 [8]
000000 aa 3d ee 3e 87 e3 e0 3e 0a b2 d0 3e 0b 94 3e 3f
       0.4653142 0.4392359 0.40760833 0.74444646
000010 4a a7 1d bd 1c 63 3b 3e c0 93 da 3e 0a 7f c2 be
       -0.038489617 0.18299526 0.4269085 -0.37987548

l3.weight f4 [7, 8]
000000 78 93 1a 3f 01 85 1e 3f d2 8f 47 bf cd 80 d1 bf
       0.6038127 0.619217 -0.7795383 -1.6367432
000010 ef ce 97 3e a1 84 3f 3e f2 b7 9c bf 98 82 02 be
       0.29650065 0.18702938 -1.2243636 -0.1274513
000020 df 3e 8c bf 80 1e c5 3d 5e 4e 90 bf 82 55 bd bf
       -1.0956687 0.09624958 -1.1273916 -1.479172
000030 5e a9 91 bf db 3c 48 3d c1 12 68 3f 94 51 89 be
       -1.1379812 0.04888616 0.90653616 -0.26820052
000040 7d e3 86 3e b1 f1 25 3f 41 73 49 bf 4d 30 0e 3f
       0.26345435 0.64821917 -0.7869149 0.5554245
000050 41 7f a2 bf 71 81 4c bf 2c 76 91 be a9 f0 51 3e
       -1.2695085 -0.7988501 -0.2841047 0.20501961
000060 ce cf 73 bf ed ac b8 bf 6b b9 80 3f c5 2e 08 3e
       -0.9523896 -1.4427773 1.0056585 0.13299091
000070 58 30 a3 bf 1d c3 39 bf f0 90 15 3f 08 15 c7 bd
       -1.2749128 -0.72563344 0.5842428 -0.09720808
000080 21 7d cf bf 11 13 d1 bf 9d be c6 3e c7 cf 54 3f
       -1.6210061 -1.6333944 0.388173 0.83129543
000090 91 fb 97 3e 74 0f d2 be 2e fd cb bf e3 74 16 be
       0.29684117 -0.41027415 -1.5936639 -0.14693026
0000a0 9f 5a cc bd 7e 4e b1 bf 9e a8 d1 be 84 59 8f be
       -0.09978222 -1.3852079 -0.40948957 -0.27997983
0000b0 4a 32 e4 bd 57 90 56 3f 8f c0 af 3b 5e bd fc 3d
       -0.111424044 0.83813995 0.005363531 0.123408064
0000c0 7f ab 10 3f 4b 18 ff be 0d d9 1d 3f 80 87 e8 be
       0.5651168 -0.49823222 0.6165932 -0.45415878
0000d0 26 12 7a 3f 78 ae 60 bf fd 2a 57 bf ae ff 21 be
       0.9768394 -0.8776622 -0.8404997 -0.1582019

l3.bias f4 [7]
000000 a6 98 6f 3c c6 24 0b 3e fe 1c fd 3e 42 42 d8 3e
       0.014623797 0.13588247 0.49436182 0.4223805
000010 b6 d7 b3 bd 96 70 97 3d d2 3f 45 bd
       -0.08781378 0.07394521 -0.048156567
